models/best_advanced_model.pth (torch, 425147 bytes, 18 tensors)

embedding.weight f4 [40, 128]
0	0x00000000	0.0
1	0x00000000	0.0
2	0x00000000	0.0
3	0x00000000	0.0
4	0x00000000	0.0
5	0x00000000	0.0
6	0x00000000	0.0
7	0x00000000	0.0
8	0x00000000	0.0
9	0x00000000	0.0
10	0x00000000	0.0
11	0x00000000	0.0
12	0x00000000	0.0
13	0x00000000	0.0
14	0x00000000	0.0
15	0x00000000	0.0
16	0x00000000	0.0
17	0x00000000	0.0
18	0x00000000	0.0
19	0x00000000	0.0
20	0x00000000	0.0
21	0x00000000	0.0
22	0x00000000	0.0
23	0x00000000	0.0
24	0x00000000	0.0
25	0x00000000	0.0
26	0x00000000	0.0
27	0x00000000	0.0
28	0x00000000	0.0
29	0x00000000	0.0
30	0x00000000	0.0
31	0x00000000	0.0
32	0x00000000	0.0
33	0x00000000	0.0
34	0x00000000	0.0
35	0x00000000	0.0
36	0x00000000	0.0
37	0x00000000	0.0
38	0x00000000	0.0
39	0x00000000	0.0
40	0x00000000	0.0
41	0x00000000	0.0
42	0x00000000	0.0
43	0x00000000	0.0
44	0x00000000	0.0
45	0x00000000	0.0
46	0x00000000	0.0
47	0x00000000	0.0
48	0x00000000	0.0
49	0x00000000	0.0
50	0x00000000	0.0
51	0x00000000	0.0
52	0x00000000	0.0
53	0x00000000	0.0
54	0x00000000	0.0
55	0x00000000	0.0
56	0x00000000	0.0
57	0x00000000	0.0
58	0x00000000	0.0
59	0x00000000	0.0
60	0x00000000	0.0
61	0x00000000	0.0
62	0x00000000	0.0
63	0x00000000	0.0
64	0x00000000	0.0
65	0x00000000	0.0
66	0x00000000	0.0
67	0x00000000	0.0
68	0x00000000	0.0
69	0x00000000	0.0
70	0x00000000	0.0
71	0x00000000	0.0
72	0x00000000	0.0
73	0x00000000	0.0
74	0x00000000	0.0
75	0x00000000	0.0
76	0x00000000	0.0
77	0x00000000	0.0
78	0x00000000	0.0
79	0x00000000	0.0
80	0x00000000	0.0
81	0x00000000	0.0
82	0x00000000	0.0
83	0x00000000	0.0
84	0x00000000	0.0
85	0x00000000	0.0
86	0x00000000	0.0
87	0x00000000	0.0
88	0x00000000	0.0
89	0x00000000	0.0
90	0x00000000	0.0
91	0x00000000	0.0
92	0x00000000	0.0
93	0x00000000	0.0
94	0x00000000	0.0
95	0x00000000	0.0
96	0x00000000	0.0
97	0x00000000	0.0
98	0x00000000	0.0
99	0x00000000	0.0
100	0x00000000	0.0
101	0x00000000	0.0
102	0x00000000	0.0
103	0x00000000	0.0
104	0x00000000	0.0
105	0x00000000	0.0
106	0x00000000	0.0
107	0x00000000	0.0
108	0x00000000	0.0
109	0x00000000	0.0
110	0x00000000	0.0
111	0x00000000	0.0
112	0x00000000	0.0
113	0x00000000	0.0
114	0x00000000	0.0
115	0x00000000	0.0
116	0x00000000	0.0
117	0x00000000	0.0
118	0x00000000	0.0
119	0x00000000	0.0
120	0x00000000	0.0
121	0x00000000	0.0
122	0x00000000	0.0
123	0x00000000	0.0
124	0x00000000	0.0
125	0x00000000	0.0
126	0x00000000	0.0
127	0x00000000	0.0
128	0xbdbf2d73	-0.093348406
129	0xbd074025	-0.033020157
130	0x3d15ef1f	0.036604997
131	0x3e6c93d5	0.23103268
132	0xbf737a5d	-0.95108587
133	0x3f0625d6	0.52401483
134	0xbeb7ec42	-0.35922438
135	0xbfa07aaf	-1.253744
136	0xbf2bdfe0	-0.6713848
137	0xbfa5dbb8	-1.2957678
138	0xbe5d5b98	-0.21616971
139	0x3ed7ad82	0.42124563
140	0x3f0a0364	0.53911424
141	0xbf5dca25	-0.86636573
142	0xbeffac90	-0.49936342
143	0x3eca297c	0.39484775
144	0x3c956c98	0.018240258
145	0xbe6e1318	-0.23249471
146	0xbe91fea5	-0.2851459
147	0xbf8c1d53	-1.0946449
148	0xc0081964	-2.1265497
149	0xbeb28165	-0.34864345
150	0x3ecb9651	0.3976312
151	0xbf870781	-1.0549165
152	0xbfa3d4eb	-1.2799352
153	0x3f28e078	0.6596751
154	0xbfa9aa61	-1.325512
155	0xbebba848	-0.36651826
156	0x3f88e5c2	1.0695117
157	0xbfbed84f	-1.4909762
158	0xbfa7aaad	-1.3098961
159	0x3f819cf4	1.0126023
160	0xbfe93424	-1.8219037
161	0x3f0f1c98	0.55903006
162	0x3f8d9dcf	1.1063784
163	0x3f35300a	0.70776427
164	0x3e72ae7a	0.2369937
165	0xbe840bd2	-0.25790268
166	0x3f763730	0.9617796
167	0x3e3ef5e0	0.18648481
168	0xbef8cc50	-0.48593378
169	0x3f56bcb0	0.83881664
170	0x3d9e8831	0.0774082
171	0x3fa8d868	1.3191042
172	0xbfd8d552	-1.69401
173	0xbfdb7630	-1.7145443
174	0x4023b5cb	2.5579708
175	0xbe8ceec2	-0.27525908
176	0xbf5a6e95	-0.85324985
177	0x3ddd55a9	0.10807354
178	0xbf0b5fd0	-0.54443073
179	0xc002d99b	-2.0445316
180	0x3d2dbc06	0.04241564
181	0xbf090b65	-0.5353301
182	0xbeb55ad4	-0.3542086
183	0x3f999b00	1.2000427
184	0xbd866bd7	-0.065635376
185	0x3f3a7a92	0.7284328
186	0x3e2d3731	0.16915585
187	0x3ebb4d3c	0.36582363
188	0x3f76f38f	0.9646539
189	0x3e58bd98	0.21166074
190	0x3f6c4d28	0.9230523
191	0xbfc3aa46	-1.5286338
192	0x3fa1d5aa	1.264333
193	0x3f2f51bc	0.6848409
194	0x3fe5736e	1.7925851
195	0x3f132fef	0.57495016
196	0x3f3a10f3	0.7268211
197	0xc021a21e	-2.5255198
198	0x3f63bf79	0.8896404
199	0xbe56dfe4	-0.20983845
200	0x39079158	0.00012928748
201	0x3ea57ec1	0.32323268
202	0x3da33f21	0.07971025
203	0xbe60e6e9	-0.21963085
204	0xc0129023	-2.2900474
205	0x3f0c284d	0.54748994
206	0xbfc2d65d	-1.5221668
207	0x3eababff	0.3352966
208	0xbf12f897	-0.5741057
209	0xbf4c6e7f	-0.79856104
210	0x3f93f313	1.1558555
211	0x3ea047ae	0.31304687
212	0x3e11dcf3	0.14244442
213	0xbfd0ad38	-1.6302862
214	0xbf2ad65d	-0.6673334
215	0x4024bfeb	2.5742137
216	0x3eb20e85	0.34776703
217	0xbd47e5ce	-0.048803143
218	0xbf04f72d	-0.5193966
219	0xbf265dee	-0.64987075
220	0x3ed8c8e3	0.42340764
221	0xbf639e87	-0.8891377
222	0x3ff5b5c2	1.9196093
223	0xbf2e26a5	-0.68027717
224	0x3df50322	0.11963488
225	0xbfdcad9b	-1.724048
226	0xbfa36b7b	-1.2767175
227	0xc00a4143	-2.1602333
228	0x40123eab	2.285075
229	0xbef6c69d	-0.48198405
230	0xbe8a809b	-0.27051243
231	0xbf1aa6cd	-0.6041077
232	0xbe45158a	-0.19246498
233	0xbf09c9bf	-0.53823465
234	0x3eb42ac3	0.35188875
235	0x3e4c8e57	0.19976173
236	0x3f294e39	0.66134983
237	0xbead9cac	-0.33908594
238	0xbf872ea1	-1.0561105
239	0x3f0c0a6b	0.54703397
240	0xbfdd5481	-1.7291414
241	0xbdc2905d	-0.09500191
242	0x3fe4078d	1.7814804
243	0xbfe5a176	-1.7939899
244	0xbdc737e8	-0.0972746
245	0xbdc20bb4	-0.094748884
246	0x3e116c00	0.14201355
247	0xbf87aff8	-1.0600576
248	0x3eac9fc7	0.3371565
249	0x3f4a1f0a	0.7895361
250	0x3ff87cb9	1.9413062
251	0xbf7f66f1	-0.9976645
252	0x3fa76cc7	1.3080071
253	0x3f9b7923	1.2146343
254	0x3d2ba44c	0.041904733
255	0x3f94d42b	1.1627249

conv1.weight f4 [64, 128, 3]
0	0x3c30565a	0.010762775
1	0x3c093a0d	0.008375657
2	0x3d538482	0.05164004
3	0xbd8387a7	-0.06422358
4	0x3d38f3db	0.045154434
5	0xbd26043a	-0.040531375
6	0x3adc7801	0.0016820432
7	0xbc485d97	-0.012229345
8	0x3d1f8c36	0.038952075
9	0xbc67c19a	-0.014145279
10	0xbc0ae248	-0.008476801
11	0xbc88c582	-0.016695742
12	0x3ae0d1d2	0.0017152375
13	0x3d093e13	0.033506464
14	0x3cbd3341	0.023095729
15	0x3d82f182	0.0639372
16	0x3c540f68	0.012943126
17	0x3d39a1dc	0.045320377
18	0xbcba2a63	-0.02272529
19	0x3c348104	0.011017088
20	0x3dd2006c	0.10253987
21	0xbc364358	-0.011124454
22	0x3cd620f8	0.026138768
23	0xbd2bcb67	-0.041942026
24	0x3cf65dca	0.030074019
25	0xbc1a5b1a	-0.009421134
26	0x3d8787e4	0.06617716
27	0xbc8b50c3	-0.017006284
28	0x3d732b53	0.05936749
29	0x3c56e731	0.013116644
30	0x3c3f8935	0.011690428
31	0x3becde0a	0.0072286176
32	0xbc802c0e	-0.015646007
33	0x3ba663e0	0.005077824
34	0xbd47c812	-0.048774786
35	0xbca4f170	-0.020134658
36	0x3d5869eb	0.052835386
37	0x3d2f0f04	0.04273893
38	0x3d5d1628	0.053976208
39	0x3d31f50c	0.043446586
40	0x3c5aa272	0.013344394
41	0x39323c8b	0.00016997957
42	0x3da96a50	0.082722306
43	0x3cb44202	0.022004131
44	0xbcaca94f	-0.021076826
45	0x3d2fcfdb	0.042922836
46	0x3d0448b7	0.03229591
47	0xbbc933ab	-0.0061401925
48	0x3da48868	0.0803383
49	0x3c3f6df6	0.011683932
50	0xbd95c8f2	-0.07313718
51	0xbd8ca9df	-0.06868338
52	0xbce5b51e	-0.028040465
53	0x3db3779f	0.0876305
54	0xbd709105	-0.05873205
55	0x3c273bac	0.010207098
56	0xbd22d0ad	-0.03974979
57	0xbd331060	-0.04371679
58	0xbd4cf5a1	-0.050038937
59	0x3d87e14c	0.06634769
60	0xbd011942	-0.03151823
61	0xbc90f53d	-0.017695064
62	0x3d13e678	0.036108464
63	0x3cd76147	0.026291503
64	0xbb2b9b39	-0.002618505
65	0x3a856b62	0.0010179097
66	0x3d4872a5	0.04893746
67	0x3ded3414	0.11582199
68	0xbd339141	-0.043839697
69	0x3d0cb9b2	0.03435678
70	0xbceb353d	-0.02871191
71	0x3d8be267	0.06830292
72	0xbd6af3d8	-0.057361454
73	0xbd0e6116	-0.034760557
74	0xbba54158	-0.00504319
75	0x3d430bbd	0.047618616
76	0x3cce4d41	0.025183322
77	0xbd6a82c8	-0.05725363
78	0xbc362faf	-0.011119767
79	0x3d879b44	0.066214114
80	0xbccd7b2e	-0.02508315
81	0xbda4558c	-0.08024129
82	0x3ccd614b	0.025070807
83	0x3d0de84d	0.034645367
84	0xbd5c56bd	-0.053793658
85	0xbdd2683b	-0.10273787
86	0x3d3e258e	0.046422534
87	0xbb5469d9	-0.0032411723
88	0x3d65d9b5	0.056115825
89	0x3c0c3206	0.008556848
90	0xbd1ee05d	-0.03878819
91	0x3d563f8d	0.0523067
92	0x3daba67f	0.08381366
93	0xbcfddb8b	-0.030988475
94	0xbc082e92	-0.0083118845
95	0xbc51d9ac	-0.012808245
96	0x3d312a3e	0.043253176
97	0x3d015455	0.031574566
98	0xbd28af9d	-0.041183103
99	0xbd75ebef	-0.060039457
100	0xbda58d5d	-0.080836035
101	0x3daaf4ca	0.08347471
102	0x3d3e492e	0.04645651
103	0xbd07b433	-0.033130836
104	0xbd62dd8a	-0.055387057
105	0x3d0c11ba	0.034196593
106	0xbd250c41	-0.04029489
107	0x3d02f780	0.031974316
108	0x3d38982b	0.045066994
109	0xbc192177	-0.009346358
110	0xbc8a94bc	-0.016916625
111	0xbd1ec947	-0.03876617
112	0x3c8fb340	0.017541528
113	0x3cc4d56c	0.024027549
114	0xbcf5d69f	-0.030009566
115	0xbc8c6c85	-0.01714159
116	0xbc23d74c	-0.010000061
117	0x3d3c8d40	0.046033144
118	0xbd04585d	-0.032310832
119	0x3d56698f	0.052346762
120	0xbcfd64a5	-0.03093178
121	0xbd809f9e	-0.062804446
122	0xbc69a3d3	-0.01426025
123	0x3c4a77d0	0.012357667
124	0x3c5caff5	0.013469686
125	0x3d03970c	0.03212647
126	0x3bfecc6c	0.007775834
127	0x3daf13ce	0.08548699
128	0xbd9dc5e3	-0.077037595
129	0xbd05f2a1	-0.032702092
130	0x3d5a51a7	0.053300526
131	0x3c349638	0.011022143
132	0xbc186f6c	-0.009303909
133	0x3d294ed9	0.04133496
134	0xbc857936	-0.01629315
135	0xbd9f1412	-0.077675
136	0xbda48380	-0.08032894
137	0xbc954d7b	-0.018225422
138	0x3bf5e2a6	0.0075038252
139	0x3d03bca1	0.032162312
140	0x3db75f24	0.089536935
141	0x3d00ac17	0.031414118
142	0x3bb7587f	0.0055952664
143	0x3cace8d1	0.02110711
144	0xbb172180	-0.002306074
145	0x3d8ebc7c	0.06969544
146	0x3d83863c	0.064220876
147	0xbc32ecf8	-0.010920756
148	0xbc93f34f	-0.018060355
149	0x3cf557f0	0.029949158
150	0xbcf39928	-0.029736117
151	0x3d0d0671	0.03442997
152	0xbd0e404a	-0.03472928
153	0xbbe64356	-0.00702707
154	0x3d2da106	0.042389892
155	0xbd401316	-0.0468932
156	0xbd25483f	-0.040352102
157	0xbd5ef010	-0.05442816
158	0x3d3944a7	0.045231488
159	0xbd1ec511	-0.038762156
160	0xbd380040	-0.044922113
161	0x3dc33680	0.095318794
162	0x3c43b7c7	0.011945671
163	0xbc689499	-0.014195585
164	0xbc808b6a	-0.015691478
165	0xbd88c747	-0.06678634
166	0x3d4a4bbe	0.04938864
167	0x3c9782f4	0.01849506
168	0x3d4f4114	0.050599173
169	0xbcecd4a2	-0.028909985
170	0xbd8c72a1	-0.06857801
171	0xbc33f909	-0.010984668
172	0x3d6ef82e	0.05834215
173	0xbd8b7815	-0.06810013
174	0x3b833822	0.0040044943
175	0xbc5c8ce1	-0.0134613225
176	0xbda5f433	-0.08103218
177	0x3cc0dd4d	0.023543024
178	0xbd303b2a	-0.043025173
179	0x3d0e3cf4	0.0347261
180	0xbb86f39a	-0.004118395
181	0xbd58c3ed	-0.052921224
182	0x3cc9e51c	0.02464538
183	0xbcabcd75	-0.020971993
184	0x3be8cc2b	0.007104417
185	0xbd21ac87	-0.039471176
186	0xbcdb3144	-0.02675689
187	0xbcfb5040	-0.030677915
188	0xbd57378d	-0.05254321
189	0x3d061ffd	0.03274535
190	0xbd9d9936	-0.07695238
191	0x3d9b6d19	0.07589168
192	0x3cec45e1	0.028841915
193	0x3d850394	0.06494823
194	0xbd35f8b1	-0.044426624
195	0x3d862ce0	0.06551528
196	0x3d296c66	0.041363142
197	0x3d075fbc	0.033050284
198	0xbd867ad9	-0.065664
199	0x3d479a1b	0.04873095
200	0xbaaab1f4	-0.0013023005
201	0xbcc85f78	-0.024459586
202	0xbd100686	-0.03516247
203	0xbd19eb2e	-0.0375778
204	0x3d0f397d	0.034966934
205	0xbd4d15fc	-0.050069794
206	0x3d41dea0	0.047331452
207	0x3c5d67c8	0.013513513
208	0xbd2b75d3	-0.041860413
209	0xbcb0ff2d	-0.021606052
210	0xbc864f76	-0.016395312
211	0x3cb1c1d5	0.021698872
212	0xbd702d35	-0.058636863
213	0x3d96179d	0.073287226
214	0xbd48d36b	-0.04902975
215	0xbd4fbd96	-0.050717913
216	0x3af13e56	0.0018405418
217	0xbc0f0c4e	-0.008730961
218	0x3c2822a1	0.010262162
219	0xbd6adce0	-0.05733955
220	0xbd026bbf	-0.031841036
221	0x3d60256a	0.05472318
222	0x3cd065e9	0.02543922
223	0xbd13cb96	-0.036082827
224	0xbcbb5297	-0.02286653
225	0xbd2fe4a7	-0.04294267
226	0xbce098aa	-0.027416546
227	0xbb24828b	-0.0025102224
228	0xbd822843	-0.063553356
229	0x3c824ce4	0.015905805
230	0x3d4e0b86	0.05030396
231	0xbd248daf	-0.040174183
232	0x3c801e2d	0.015639389
233	0xbc34a9a1	-0.011026771
234	0xbdca9cf9	-0.098932214
235	0xbdbe3593	-0.09287562
236	0x3d8d788c	0.06907758
237	0xbd1b9691	-0.03798539
238	0xbd49b7b0	-0.049247444
239	0xbc3c6c1a	-0.011500383
240	0x3c34df91	0.0110396305
241	0xbcab4b7a	-0.020910013
242	0xbbe26da7	-0.0069100442
243	0x3d3c81df	0.046022292
244	0xbd5a18e3	-0.05324639
245	0xbcf84ff9	-0.030311571
246	0xbcf7d75b	-0.030254057
247	0xbb2b23ab	-0.002611379
248	0xbb0852f0	-0.0020801388
249	0xbc88fd70	-0.01672241
250	0xbd17237f	-0.036899086
251	0xbd28fccf	-0.041256722
252	0x3bec1238	0.0072043203
253	0xbc5c71dd	-0.0134548815
254	0x3c0a34c0	0.008435428
255	0x3d013e6b	0.031553667

conv1.bias f4 [64]
0	0x3d260f0f	0.040541705
1	0x3bd508dd	0.0065013007
2	0x3cb45d10	0.022017032
3	0xbd3ef5aa	-0.046621002
4	0x3d3e416a	0.046449102
5	0x3c9a05b4	0.018801548
6	0x3ca68e2d	0.020331467
7	0x3d21c4fb	0.039494496
8	0xbd40e063	-0.04708899
9	0x3c868901	0.01642275
10	0x3d188f7d	0.037246216
11	0xbd2209b9	-0.039560053
12	0x3bcadb48	0.006190691
13	0xbcc40d05	-0.02393199
14	0x3c6a8b75	0.014315476
15	0xbcbb614e	-0.022873547
16	0xbd18c2c7	-0.03729513
17	0xbd54fd45	-0.05199935
18	0xbd05b93a	-0.03264735
19	0x3ca2b523	0.019861763
20	0x3d0c5193	0.034257483
21	0x3d3794de	0.044819705
22	0x3cb6a078	0.022293314
23	0x3cfda184	0.030960806
24	0xbc87832c	-0.01654204
25	0xbb1604a2	-0.0022890945
26	0x3c846251	0.016160162
27	0xbbebb898	-0.007193636
28	0xbce9ae30	-0.028525442
29	0x3cfa886d	0.030582631
30	0x3d137c3c	0.03600715
31	0x3d504d55	0.050855
32	0x3d03fcb7	0.03222343
33	0x3bfe313d	0.0077573345
34	0xbc3aa6e0	-0.011392325
35	0x3cd6caac	0.026219688
36	0xbb9360d1	-0.0044976254
37	0x3c0716cf	0.008245184
38	0x3acb8613	0.0015527628
39	0x3d269471	0.04066891
40	0x3c8fe98d	0.01756742
41	0xbd083e75	-0.03326269
42	0x3cbc08a1	0.022953333
43	0xbd02b35a	-0.031909324
44	0x3bf7a9c2	0.0075580785
45	0xbaee77c3	-0.0018193651
46	0xbc9061ab	-0.017624697
47	0xbc6671ed	-0.014065248
48	0x3c3c51b5	0.01149409
49	0xbd1d47c5	-0.038398523
50	0x3d2a4751	0.04157192
51	0x3d43cc79	0.047802422
52	0xbd2edc81	-0.042690758
53	0x3cc9b19f	0.02462083
54	0x3bf2f760	0.0074147433
55	0xbb2f2732	-0.0026726243
56	0xbb1adbf6	-0.0023629642
57	0x3ca8e8ac	0.02061876
58	0x3c8ba1ce	0.017044928
59	0x3a89d6a5	0.001051624
60	0xbc5a3d83	-0.01332033
61	0xbd50227c	-0.050814137
62	0x3d62b31e	0.0553466
63	0x3d4435ed	0.04790299

bn1.weight f4 [64]
0	0x3f81432d	1.0098625
1	0x3f86dd2f	1.053625
2	0x3f807b0d	1.0037552
3	0x3f869e0a	1.051698
4	0x3f87682d	1.0578667
5	0x3f834c90	1.025774
6	0x3f839aa6	1.028157
7	0x3f87cc10	1.060915
8	0x3f824684	1.017777
9	0x3f828f17	1.0199918
10	0x3f805e9b	1.0028871
11	0x3f892826	1.0715377
12	0x3f87ad45	1.0599753
13	0x3f855684	1.0417027
14	0x3f869b05	1.0516058
15	0x3f7d5f01	0.9897309
16	0x3f7ea249	0.9946638
17	0x3f865e62	1.0497553
18	0x3f8214c5	1.0162588
19	0x3f8091e9	1.0044528
20	0x3f842018	1.0322294
21	0x3f8735c7	1.0563287
22	0x3f862082	1.0478671
23	0x3f85b1b0	1.0444851
24	0x3f81eaf7	1.014983
25	0x3f857bec	1.0428443
26	0x3f81fd6d	1.0155464
27	0x3f8105f4	1.0079942
28	0x3f8335aa	1.0250752
29	0x3f8461f1	1.0342389
30	0x3f83c3ea	1.0294163
31	0x3f85a437	1.0440739
32	0x3f839ad9	1.0281631
33	0x3f837f48	1.0273218
34	0x3f82641b	1.01868
35	0x3f8356d8	1.0260878
36	0x3f843d45	1.0331198
37	0x3f893e3c	1.0722117
38	0x3f8787f9	1.058837
39	0x3f7edc9e	0.99555385
40	0x3f82e9da	1.0227616
41	0x3f84db6c	1.0379462
42	0x3f88ac88	1.0677652
43	0x3f8262ba	1.0186379
44	0x3f82d600	1.0221558
45	0x3f844221	1.0332681
46	0x3f81ce75	1.0141131
47	0x3f84e5b8	1.0382605
48	0x3f859e27	1.0438889
49	0x3f811864	1.0085568
50	0x3f81da00	1.0144653
51	0x3f831c6c	1.0243049
52	0x3f863740	1.0485611
53	0x3f83e234	1.0303407
54	0x3f84b2a9	1.0367023
55	0x3f84e730	1.0383053
56	0x3f8204c6	1.0157707
57	0x3f7ee1b8	0.9956317
58	0x3f8369af	1.0266627
59	0x3f872d92	1.0560782
60	0x3f844ca8	1.0335894
61	0x3f84ce30	1.0375423
62	0x3f83561f	1.0260657
63	0x3f851daa	1.0399678

bn1.bias f4 [64]
0	0xbce8c1ed	-0.028412784
1	0xbc37175c	-0.011175003
2	0xbd350cb3	-0.044201564
3	0xbc90b51d	-0.017664487
4	0x3c6e6bc8	0.014552064
5	0x3b4d2e03	0.0031307943
6	0xbd43edcd	-0.047834206
7	0x3c2c3323	0.010510239
8	0xbc75ecee	-0.015010102
9	0x3bcd074d	0.006256974
10	0xbd07bfa2	-0.03314174
11	0x3bc6ebef	0.006070606
12	0x3c28557d	0.010274288
13	0x3bdb1e5e	0.0066869697
14	0xbd00a235	-0.031404693
15	0xbd396763	-0.045264613
16	0xbc67ef8b	-0.014156233
17	0xbc04ad6d	-0.008097989
18	0xbc96d32f	-0.018411247
19	0xbcef77ae	-0.029231872
20	0xbc3ad1a0	-0.011402518
21	0xbc588ad9	-0.013216698
22	0x3beab468	0.0071626194
23	0xbd80562e	-0.062664375
24	0xbc063b82	-0.008192899
25	0xbb7fcb7b	-0.0039031196
26	0xbd05919f	-0.03260958
27	0xbca27362	-0.01983041
28	0xbb444b4e	-0.0029952112
29	0xba70c635	-0.00091848086
30	0x3b6c97ac	0.0036101146
31	0xbc14ba2b	-0.009077589
32	0xbc94a71a	-0.018146086
33	0xbcc5ef15	-0.024161855
34	0xbce3719a	-0.02776413
35	0xba743cd5	-0.0009316926
36	0xbc2610f4	-0.010135878
37	0xbbcd8bfd	-0.0062727914
38	0xbc8e951a	-0.017405082
39	0xbd000f7f	-0.03126478
40	0xbc3aa76b	-0.011392455
41	0xbbdfcf5e	-0.00683014
42	0xbc0aae48	-0.008464403
43	0xbc1d5665	-0.009603118
44	0xbc9a97dd	-0.018871242
45	0xbc45f17e	-0.012081502
46	0xbc5290c3	-0.012851897
47	0x3c0ad572	0.008473741
48	0xbc8f0f77	-0.017463429
49	0xbc9e658b	-0.019335529
50	0xbd214ac1	-0.03937793
51	0xbcd727af	-0.02626404
52	0xbcf91eb9	-0.030410158
53	0xbcabff47	-0.02099575
54	0x3bb2d805	0.0054578804
55	0xbcc66eff	-0.024222849
56	0xbcf735bd	-0.030176992
57	0xbcf59919	-0.02998023
58	0xbc1516e9	-0.0090997005
59	0xbacd8dfe	-0.0015682576
60	0xbca3ecb4	-0.02001033
61	0xbc18bf0f	-0.009322896
62	0xbd00a262	-0.03140486
63	0x3bf40a66	0.0074475287

bn1.running_mean f4 [64]
0	0xbd8ee769	-0.06977732
1	0x3eac2859	0.33624533
2	0x3e7967c4	0.2435599
3	0xbd7fcab9	-0.06244919
4	0xbc888d80	-0.016669035
5	0x3f1442be	0.5791434
6	0xbd9c18e8	-0.07621938
7	0xbe9a2bb4	-0.30111468
8	0xbe32751a	-0.17427483
9	0xbe77a3e6	-0.24183616
10	0xbd5fde06	-0.054655097
11	0xbe8d224c	-0.2756523
12	0x3ef08022	0.46972758
13	0x3e69e80a	0.22842422
14	0xbe0e62a7	-0.1390482
15	0xbd03267e	-0.03201913
16	0xbf05bfd5	-0.5224584
17	0xbdf74629	-0.12073929
18	0x3b020d74	0.0019844444
19	0xbeae07b4	-0.33990252
20	0xbe1e845d	-0.1548018
21	0x3cf26b57	0.0295922
22	0xbf324deb	-0.69650143
23	0xbe18b7ef	-0.14913915
24	0x3e57b48a	0.21064964
25	0x3e85c97e	0.2613029
26	0x3d85f0cf	0.06540071
27	0xbea22a7a	-0.31673032
28	0x3e131d40	0.14366627
29	0x3e5cb192	0.21552113
30	0x3f03b9e1	0.51455504
31	0x3e46f226	0.1942831
32	0x3da6f48e	0.08152114
33	0xbe4f81c7	-0.2026435
34	0xbc643687	-0.013929016
35	0xbf0e746b	-0.5564639
36	0xbde05660	-0.10953975
37	0xbf1d62b2	-0.6147872
38	0x3d8abce4	0.06774309
39	0x3f098513	0.5371868
40	0x3ed6e242	0.41969496
41	0xbd2748ef	-0.04084104
42	0xbc2efb10	-0.010679975
43	0x3e887170	0.26649046
44	0xbd8347fc	-0.06410214
45	0x3dfa21dd	0.1221349
46	0x3ebdde2a	0.3708356
47	0x3e45884c	0.19290274
48	0x3d3f4f25	0.046706337
49	0xbe70adfc	-0.2350387
50	0xbcede122	-0.029038016
51	0xbe8b3a23	-0.27192792
52	0xbdbe4e80	-0.092923164
53	0x3dc8f6fb	0.09812733
54	0xbee9d538	-0.45670485
55	0xbc96d742	-0.01841319
56	0xbd92b7f1	-0.0716399
57	0x3c9a7cbd	0.018858308
58	0x3e9b58e7	0.30341265
59	0xbf3ef889	-0.74597985
60	0xbe370bde	-0.1787562
61	0x3c877981	0.01653743
62	0xbc4f5e02	-0.012656691
63	0xbf56632e	-0.83745086

bn1.running_var f4 [64]
0	0x3f9b4877	1.213149
1	0x3fcbac9f	1.5912055
2	0x3fdc4696	1.7209041
3	0x3f858557	1.0431317
4	0x3fac44c1	1.3458482
5	0x3fdafcd6	1.710841
6	0x3fa03ce7	1.2518586
7	0x3f67053b	0.90242356
8	0x3fd1c5e7	1.638852
9	0x3fe4e8c3	1.7883533
10	0x3faad81c	1.3347201
11	0x3fd00e64	1.6254392
12	0x3ff7b8e8	1.9353304
13	0x40118099	2.273474
14	0x3fad5f43	1.3544697
15	0x3fd84e21	1.6898843
16	0x3fb95c5b	1.448131
17	0x3fedb92d	1.8572136
18	0x3fb202d6	1.3907115
19	0x3fdace4f	1.709421
20	0x3fc08a75	1.5042254
21	0x3fcb7760	1.5895805
22	0x3fbe013d	1.4844128
23	0x3faa34f8	1.3297415
24	0x3fd87b0d	1.6912552
25	0x3fbfbe08	1.4979868
26	0x3fdd0175	1.726607
27	0x3fac41db	1.3457597
28	0x3fad1f9f	1.3525275
29	0x3fa59bd1	1.2938176
30	0x3fc253ac	1.5181785
31	0x400c92be	2.1964564
32	0x3fd3ff78	1.6562338
33	0x3f8a6582	1.0812228
34	0x3f96d775	1.1784502
35	0x3ffdcd30	1.9828243
36	0x3fa6411f	1.2988623
37	0x3fd0ad4e	1.6302888
38	0x3f62b7f2	0.8856193
39	0x3fde2cde	1.7357442
40	0x40048bbc	2.0710287
41	0x3fbcc596	1.4747798
42	0x3fbdca81	1.4827424
43	0x3fe2ab97	1.7708615
44	0x3f77e208	0.9682927
45	0x3fad2e58	1.3529768
46	0x3fc17b0d	1.5115677
47	0x3fe7c101	1.8105775
48	0x400e29c1	2.2212985
49	0x40005bbc	2.005599
50	0x400d9e15	2.2127736
51	0x3f962633	1.1730407
52	0x3fa940a9	1.3222858
53	0x3fb2bfc7	1.3964776
54	0x3f9f893d	1.2463757
55	0x3fb3b4cc	1.403955
56	0x3f873c3c	1.0565257
57	0x3fdac03c	1.7089915
58	0x3fdbbb1a	1.7166474
59	0x3fa9b31e	1.3257787
60	0x3fb2703c	1.3940501
61	0x3fa4982f	1.2858943
62	0x3f910d2f	1.1332148
63	0x3ff7e609	1.9367076

lstm.weight_ih_l0 f4 [256, 64]
0	0x3d387593	0.045034003
1	0x3d16ebe9	0.036846075
2	0xbdba721d	-0.09103797
3	0xbe0943fd	-0.13404842
4	0xbe0d9013	-0.13824491
5	0xbc986d74	-0.018606879
6	0x3da4fc8a	0.080559805
7	0xbbe62d56	-0.0070244474
8	0x3c283b67	0.010268069
9	0x3b437314	0.002982323
10	0x3c7c1234	0.015385199
11	0x3dd002f0	0.1015681
12	0xbe1ec8bb	-0.1550626
13	0x3d282c96	0.041058145
14	0x3d9cb52c	0.07651743
15	0x3c10d886	0.008840686
16	0xbb215349	-0.0024616292
17	0x3dd4a2c1	0.10382605
18	0xbd6eb032	-0.0582735
19	0xbdbf2bbc	-0.093345135
20	0x3d7a854b	0.061162274
21	0x3dd16626	0.102245614
22	0x3d8d06ae	0.0688604
23	0xbdd4f025	-0.103973664
24	0x3c0c1855	0.008550723
25	0x3d70815e	0.058717124
26	0x3de9f09e	0.11422847
27	0x3d48f4fc	0.04906176
28	0xbd646e6c	-0.05576937
29	0xbd819bfa	-0.06328578
30	0xbe0627cf	-0.13101123
31	0xbdb153a7	-0.086585335
32	0x3e09fcd9	0.1347536
33	0x3ddbcda3	0.107325815
34	0xbb3ecb26	-0.0029112785
35	0xbde82dff	-0.11336898
36	0x3c84e666	0.016223144
37	0x3dbd5fe6	0.09246807
38	0x3de3b7fa	0.11119075
39	0xbd50c1cd	-0.050966073
40	0x3d5504bd	0.052006472
41	0xbe0752a7	-0.13215123
42	0xbaf85b7d	-0.0018948164
43	0xbe04b87a	-0.12960997
44	0xbdb8aa09	-0.09016807
45	0x3d8edb8f	0.06975471
46	0x3dd4d816	0.103927776
47	0x3da64fee	0.08120714
48	0x3e026a0a	0.12735763
49	0x3df37ee0	0.11889434
50	0xbc21dc18	-0.009879135
51	0x3d76b85e	0.06023442
52	0x3d04072c	0.032233402
53	0xbdf34a31	-0.11879385
54	0x3d322860	0.043495536
55	0x3db53fce	0.088500604
56	0xbd523c97	-0.051327314
57	0xbc093f31	-0.008376882
58	0x3d2c8e65	0.042127986
59	0x3b4693b2	0.0030300436
60	0xbdeb4dab	-0.11489423
61	0x3beebd82	0.0072857747
62	0xbda4075d	-0.08009217
63	0x3d115df9	0.03549001
64	0x3dee100b	0.11624154
65	0x3ddf2109	0.10894973
66	0x3dac5907	0.08415418
67	0xbd813399	-0.063086696
68	0x3d9bfebc	0.07616946
69	0xbdb162c1	-0.08661414
70	0x3d8ff398	0.07028884
71	0xbc99204f	-0.018692164
72	0xbcaa6db1	-0.020804258
73	0xbded2f13	-0.11581244
74	0x3b224cf6	0.002476511
75	0xbd09030a	-0.033450164
76	0x3d6dc13c	0.05804561
77	0x3da19ef7	0.07891648
78	0x3d865b63	0.065603994
79	0x3d1b02f0	0.0378446
80	0x3cc4460f	0.023959188
81	0xbdb35f4e	-0.08758412
82	0xbd974da4	-0.07387856
83	0x3d2507ca	0.04029063
84	0x3da4eb4b	0.08052691
85	0x3df4061a	0.11915226
86	0xbd1ec686	-0.038763545
87	0xbe09f816	-0.13473544
88	0x3db3377b	0.087508164
89	0xbd4e5588	-0.050374538
90	0x3d902828	0.07038909
91	0xbc3c5e36	-0.011497071
92	0xbd788671	-0.06067509
93	0xbe07d7e3	-0.13265948
94	0x3e18d2a5	0.14924105
95	0xbd1b1bcd	-0.03786831
96	0x3d2ab023	0.041671883
97	0xbdb00f1a	-0.085966304
98	0x3cd77a4a	0.02630343
99	0xbdd436e1	-0.1036203
100	0x3dc2c5af	0.095103614
101	0xbda47ad4	-0.0803124
102	0xbd3fd1de	-0.046831004
103	0x3dbfe4a8	0.093697846
104	0xbe089fee	-0.13342258
105	0xbe02b56d	-0.12764521
106	0x3dce54de	0.10074781
107	0xbd5dd914	-0.0541621
108	0xbd33c8b5	-0.04389258
109	0xbd8391c2	-0.064242855
110	0xbdd14257	-0.102177314
111	0xbc510769	-0.012758114
112	0xbd0bcf84	-0.03413345
113	0xbb9e5d61	-0.004832909
114	0x3dcec241	0.10095645
115	0x3c733154	0.014843304
116	0xbdaeed19	-0.085413165
117	0x3cd4eb5e	0.025991138
118	0x3db011ce	0.08597146
119	0x3c8bea03	0.017079359
120	0x3c987297	0.018609328
121	0x3cdd3e16	0.027007144
122	0xbd15d0a0	-0.036575913
123	0xbcd732cd	-0.02626934
124	0x3dbebddc	0.093135566
125	0xbdf1d870	-0.1180886
126	0xbde5a4f7	-0.11213105
127	0xbc6f460a	-0.014604101
128	0xbe0fc9f3	-0.14041881
129	0xbdd59519	-0.10428829
130	0x3c4381b1	0.011932776
131	0xbe18720b	-0.14887254
132	0xbc88d054	-0.016700901
133	0xbc4a9c1a	-0.012366319
134	0xbe01d520	-0.12678957
135	0x3de3ec25	0.11129025
136	0xbd8e248c	-0.069405645
137	0x3db974e3	0.090554975
138	0xbdad4c1e	-0.08461784
139	0x3ba0b27a	0.0049040886
140	0x3d865b64	0.065604
141	0xbd72457e	-0.059148304
142	0xbc83c932	-0.016087148
143	0x3ddc839f	0.10767292
144	0xbd936dd0	-0.071986794
145	0xbe3f8984	-0.18704802
146	0xbcdc876b	-0.026920041
147	0x3a94f136	0.001136339
148	0xbe3af097	-0.1825584
149	0x3bbf4998	0.0058376305
150	0x3de3ed22	0.11129214
151	0x3dd2f461	0.10300518
152	0x3d19c715	0.037543375
153	0xbdbecca2	-0.09316374
154	0x3e3a18f8	0.18173587
155	0xbaffd878	-0.0019519469
156	0xbc83e0cd	-0.016098404
157	0xbdda3223	-0.10654094
158	0x3e17753f	0.1479082
159	0xbe176c25	-0.14787348
160	0x3a9acb09	0.0011809777
161	0xbdbda013	-0.09259047
162	0xbddaf8b1	-0.10691965
163	0xbcd15b39	-0.025556194
164	0xbe4abb40	-0.19797993
165	0xbca3221c	-0.019913726
166	0xbc2dab77	-0.010599962
167	0x3d38fea9	0.045164738
168	0x3b9857be	0.0046491316
169	0x3c72d915	0.014822264
170	0x3c7714f4	0.015080679
171	0x3db224dd	0.08698437
172	0xbd09603d	-0.033539046
173	0xbc17d4dc	-0.009267058
174	0x3da5a64a	0.08088358
175	0xbd5152da	-0.051104404
176	0x3db4e732	0.088331595
177	0xbdf08a3b	-0.11745115
178	0xbac35596	-0.0014902826
179	0xbe21091f	-0.15726136
180	0x3d6c722d	0.057726074
181	0xbe49d30c	-0.19709414
182	0x3dcb2aba	0.09920259
183	0x3ce1f7d0	0.027583987
184	0x3c9b2311	0.01893762
185	0x3c9ee62d	0.019396866
186	0xbcebae83	-0.028769737
187	0x3b1edcb8	0.0024240445
188	0xbe19b3e4	-0.15010029
189	0xbae65bec	-0.0017575002
190	0x3d455651	0.04817802
191	0x3d30e203	0.04318429
192	0xbd55f160	-0.052232146
193	0x3e06c390	0.13160539
194	0xbd10197c	-0.035180554
195	0x3e0a1a61	0.13486625
196	0x3da54631	0.080700286
197	0xbe1aebaf	-0.15128969
198	0x3dca4ae8	0.098775685
199	0xbd867609	-0.06565482
200	0x3e22809a	0.1586937
201	0xbcae26e6	-0.021258783
202	0xbbf5a0f2	-0.007495993
203	0x3e024134	0.12720186
204	0x3e3741d6	0.17896208
205	0x3dbea598	0.09308928
206	0x3da2f213	0.07956328
207	0x3d675ead	0.056486774
208	0x3da6d6b3	0.081464194
209	0x3ca19a8b	0.019727012
210	0x3df46421	0.119331606
211	0x3cb1e1f5	0.02171419
212	0xbc0f828f	-0.008759155
213	0x3e2a685a	0.1664137
214	0xbd9ec4ac	-0.07752356
215	0x3cb2dedb	0.021834781
216	0xbca2fa60	-0.019894779
217	0x3e0861d0	0.13318563
218	0x3d0953a3	0.033527028
219	0x3cbdafb0	0.023155063
220	0x3e5cbd00	0.21556473
221	0x3e063d68	0.13109362
222	0x3e18f2da	0.1493639
223	0x3e38a0de	0.18030116
224	0x3dc3c203	0.09558489
225	0x3e0e9617	0.13924442
226	0xbde97f57	-0.11401241
227	0x3cf9bb39	0.030484783
228	0x3a924354	0.0011158981
229	0x3ded26b0	0.11579645
230	0x3d008456	0.031376205
231	0x3e14750f	0.1449778
232	0xbacf42e7	-0.0015812785
233	0x3e2696cb	0.1626846
234	0x3de40528	0.11133796
235	0xbd49246b	-0.049106997
236	0x3c6ad186	0.014332181
237	0x3c650a7b	0.0139795495
238	0xbc11e53b	-0.00890475
239	0xbd8c24f8	-0.06842989
240	0xbe10444a	-0.1408855
241	0x3cb7847c	0.02240204
242	0x3cbf1d01	0.02332926
243	0x3d9e98e0	0.07744002
244	0x3d86724c	0.06564769
245	0x3e576aec	0.21036881
246	0xbd227b19	-0.039668176
247	0xbcaa813b	-0.020813575
248	0x3e21fb00	0.15818405
249	0x3e210de9	0.15727963
250	0xbe226f41	-0.15862752
251	0xbde00dd6	-0.10940139
252	0xbd83674b	-0.06416186
253	0x3c455ea8	0.012046494
254	0x3c92b21b	0.017907193
255	0x3e00d6c1	0.12581922

lstm.weight_hh_l0 f4 [256, 64]
0	0x3d08742c	0.033313915
1	0xbd25fc79	-0.04052398
2	0x3b839319	0.004015338
3	0x3db93fe4	0.09045389
4	0x3daaa825	0.08332852
5	0x3d43b7c8	0.04778269
6	0xbd941900	-0.07231331
7	0xbdfdeb33	-0.12398376
8	0x3d951b81	0.072806366
9	0xbcdf8a53	-0.027287638
10	0xbca73712	-0.020412002
11	0xbd266a15	-0.04062851
12	0xbdac8f08	-0.084257185
13	0xbdda9688	-0.10673243
14	0x3def7626	0.11692457
15	0xbe155503	-0.1458321
16	0xbd17603f	-0.03695702
17	0x3dc460aa	0.0958875
18	0xbd93d31f	-0.072180025
19	0x3da803b3	0.082038306
20	0xbc38b5e4	-0.011273835
21	0x3d60ce7d	0.054884423
22	0x3c823738	0.015895471
23	0xbde65f3c	-0.11248633
24	0xbcce4cd0	-0.025183111
25	0xbd396de2	-0.045270808
26	0xbdae6382	-0.08515073
27	0x3cf1e1dd	0.029526645
28	0xbc88a219	-0.016678857
29	0xbdfcc905	-0.12343029
30	0x3dfa1cad	0.12212501
31	0xbcd4d2ff	-0.025979517
32	0xbda6bf21	-0.08141924
33	0xbd71dedd	-0.05905043
34	0x3d2fce5b	0.042921405
35	0x3e031523	0.12801032
36	0xbd1f8bcb	-0.038951676
37	0xbce1f259	-0.02758138
38	0xbc9924dd	-0.018694336
39	0xbd7eff94	-0.062255457
40	0xbd3c08f3	-0.045906972
41	0x3dfb48e3	0.122697614
42	0x3deb188d	0.11479292
43	0x3d221f0e	0.039580397
44	0xbd2a2ada	-0.041544773
45	0xbd2b2c53	-0.041790318
46	0xbdc010d9	-0.093782134
47	0x3ddfffd7	0.109374695
48	0x3d283f23	0.041075837
49	0xbdd9bf9c	-0.1063225
50	0xbd8a6ae3	-0.06758668
51	0x3dc3648b	0.095406614
52	0xbdfc5b08	-0.1232205
53	0x3d188d24	0.037243977
54	0xbd05a74f	-0.03263026
55	0x3d10ff2c	0.0353996
56	0xbcad8224	-0.02118022
57	0x3d1f2e81	0.03886271
58	0x3d1b3a13	0.03789718
59	0xbd7b14c6	-0.061299108
60	0x3db38c98	0.087670505
61	0x3dce112a	0.100618675
62	0xbd9069d5	-0.07051436
63	0xbdccf5b7	-0.10007804
64	0x3cc6b7e0	0.0242576
65	0xbe120eca	-0.14263454
66	0x3d04dbd1	0.032436196
67	0xbd67e7b7	-0.056617465
68	0xbc17b761	-0.0092600295
69	0x3da9c441	0.082893856
70	0xbcee1e38	-0.029067144
71	0xbce83cd2	-0.028349314
72	0x3d4a9864	0.049461737
73	0x3c2ab495	0.010419031
74	0xbdcd3eb3	-0.100217246
75	0x3d6ff338	0.05858156
76	0xbe0321d6	-0.12805876
77	0x3daf9078	0.08572477
78	0xbd1cc5c1	-0.03827453
79	0x3d9c2ba2	0.0762551
80	0xbd88c447	-0.06678062
81	0xbcaa085b	-0.020755937
82	0x3d4dce66	0.050245665
83	0x3ca92868	0.02064915
84	0xbda39042	-0.07986499
85	0xbd7dec5a	-0.06199298
86	0x3cc5efa1	0.024162116
87	0xbd7e0010	-0.06201178
88	0x3d1828c7	0.037148263
89	0x3d0f1edd	0.034941543
90	0xbd237ee7	-0.039915945
91	0xbda03c60	-0.078240156
92	0x3db3e772	0.08784379
93	0x3db61b03	0.08891871
94	0x3d09c33c	0.033633456
95	0x3dc357f3	0.09538259
96	0xbd0f87e1	-0.035041694
97	0xbd0030ae	-0.031296425
98	0x3da29135	0.07937852
99	0x3cb735f6	0.022364598
100	0x3cad0475	0.02112029
101	0x3cef13fe	0.029184338
102	0xbcf375e4	-0.0297193
103	0x3dad16a1	0.08451582
104	0xbb90fb75	-0.0044245073
105	0x3cb36d59	0.021902727
106	0xbcf4fe2b	-0.029906353
107	0xbd80158c	-0.0625411
108	0xbc8758c5	-0.01652182
109	0x3e098e16	0.13433108
110	0x3da44947	0.08021789
111	0x3d140b0d	0.03614335
112	0xbc94a56e	-0.01814529
113	0xbdda45a1	-0.10657812
114	0xbe03c291	-0.1286719
115	0x3cae7145	0.021294245
116	0xbd2e16dc	-0.04250227
117	0xbcd9db06	-0.026593696
118	0x3cc8b9ef	0.024502723
119	0xbd05d60f	-0.032674845
120	0x3bf04fd8	0.007333737
121	0x3dc89fd0	0.09796107
122	0x3e02b34c	0.12763709
123	0x3d4b56c9	0.04964331
124	0xbdee6952	-0.11641182
125	0xbddbce19	-0.107326694
126	0xbdc21c64	-0.09478071
127	0xbc15f658	-0.009152971
128	0xbc05da6b	-0.008169751
129	0xbde5fe52	-0.112301484
130	0x3df1dcef	0.11809718
131	0x3daad90f	0.08342182
132	0x3ddf00b5	0.10888807
133	0xbdba6caf	-0.09102761
134	0x3da83ef3	0.082151316
135	0x3d959233	0.07303276
136	0x3cadcff3	0.021217322
137	0x3d659b57	0.056056347
138	0xbdbe1339	-0.0928101
139	0x3d4b98fe	0.04970645
140	0x3d83d9bf	0.06438016
141	0xbe080bf4	-0.1328581
142	0xbd9b6d54	-0.07589212
143	0x3d1d9264	0.038469687
144	0xbd6daa7a	-0.058023907
145	0xbd8c4098	-0.06848258
146	0xbe0a121f	-0.13483475
147	0x3d46de66	0.04855194
148	0xbc3ad9ad	-0.011404437
149	0xbc8b76a8	-0.017024353
150	0xbda0bbfb	-0.078483544
151	0x3d93ebc0	0.072227
152	0x3dad2046	0.08453421
153	0xbcaf2f53	-0.02138487
154	0x3dc33855	0.09532229
155	0x3e232bda	0.15934697
156	0xbc52e054	-0.012870867
157	0xbc82af66	-0.015952777
158	0x3dcb4b45	0.09926466
159	0x3d6db71d	0.05803596
160	0xbdc83eac	-0.09777579
161	0xbe1f74f6	-0.15571961
162	0xbbec5fec	-0.007213583
163	0x3cf35c2a	0.029707033
164	0x3dcc19df	0.09965872
165	0x3de36eae	0.11105095
166	0x3d7ea505	0.062169094
167	0x3b267160	0.0025397167
168	0xbd2da953	-0.04239781
169	0xbd6fb6fb	-0.058524113
170	0x3dcd4a81	0.10023976
171	0x3d6b2a3f	0.057413336
172	0xbd5408ca	-0.051766194
173	0x3d4fb942	0.050713785
174	0xbc849ed2	-0.016189013
175	0x3cf05cc0	0.029341102
176	0xbc17a953	-0.009256679
177	0xbdc04872	-0.09388818
178	0x3a81a79a	0.0009891868
179	0x3dc570cb	0.09640654
180	0xbd9dd2f8	-0.07706255
181	0x3e0317ce	0.1280205
182	0x3d5f6041	0.054535154
183	0x3dcb5fd9	0.09930391
184	0xbdbb2528	-0.09137946
185	0x3d98f54b	0.07468661
186	0x3db63dfd	0.08898542
187	0xbdb00bcc	-0.08596
188	0xbd825b82	-0.0636511
189	0xbe15703b	-0.14593594
190	0xbd4d4038	-0.050110072
191	0x3d7b4e60	0.06135404
192	0x3df7c738	0.12098545
193	0xbda864c6	-0.08222346
194	0xbd49b729	-0.04924694
195	0x3d3b8a86	0.045786403
196	0x3dd7e285	0.10541252
197	0xbc30f2cf	-0.010800078
198	0x3e023a18	0.12717474
199	0x3d6f9647	0.058492925
200	0xbda069e1	-0.07832695
201	0xbd7359f7	-0.05941197
202	0x3d92c5b0	0.07166612
203	0xbdd1fe9c	-0.10253641
204	0xbcf0e99a	-0.029408265
205	0x3c5a8c9f	0.013339191
206	0xbc89c9e6	-0.016819905
207	0xbe05bcfd	-0.13060375
208	0x3da0e655	0.07856432
209	0xbdd68cdd	-0.10476086
210	0x3cd5c7c0	0.026096225
211	0x3dbfff06	0.09374814
212	0x3cba89fb	0.022770872
213	0x3d304513	0.043034624
214	0x3d31023d	0.043215025
215	0xbc8d937a	-0.017282236
216	0x3d0e0887	0.0346761
217	0xba813a98	-0.0009859381
218	0xbe0e2e41	-0.13884832
219	0xbe0e1dab	-0.13878505
220	0x3ddd63dc	0.10810062
221	0xbdde82ac	-0.108647674
222	0xbd689b53	-0.056788754
223	0x3d1d92c0	0.03847003
224	0xbd0fa501	-0.03506947
225	0xbe178912	-0.14798382
226	0xbddbfdc1	-0.10741759
227	0xbcb819df	-0.022473274
228	0x3d65cef2	0.05610556
229	0xbccd24d8	-0.025041983
230	0xbe0c1d74	-0.1368311
231	0x3c211b10	0.009833112
232	0x3db83f10	0.08996403
233	0xbe01c0d2	-0.12671211
234	0x3dbc73a6	0.09201746
235	0x3d9d5101	0.07681466
236	0xbd25f469	-0.04051629
237	0xbd5df629	-0.054189835
238	0x3c55b6cf	0.013044073
239	0x3d35e543	0.044408094
240	0x3d90c988	0.07069689
241	0x3d3e171f	0.04640877
242	0xbc86be48	-0.016448155
243	0x3cf14bf4	0.029455163
244	0xbd8270f8	-0.06369203
245	0xbdf2a7a6	-0.11848383
246	0xbdd41299	-0.1035511
247	0x3cea0b41	0.02856982
248	0x3d88c9b3	0.06679096
249	0xbce0bccc	-0.027433775
250	0xbc2985d7	-0.010346851
251	0x3d292288	0.041292697
252	0xbe0fe42a	-0.14051881
253	0x3b124292	0.002231751
254	0x3d9afa26	0.07567243
255	0x3c81cd5f	0.015844999

lstm.bias_ih_l0 f4 [256]
0	0x3da08d54	0.07839456
1	0xbd7dcd6f	-0.061963495
2	0xbded70bc	-0.11593768
3	0x3cfd39e5	0.030911395
4	0x3da5a565	0.08088187
5	0xbdea05a1	-0.11426855
6	0x3db69f52	0.08917107
7	0x3dc804de	0.09766553
8	0xbcb3fc52	-0.021970902
9	0x3b953124	0.004552977
10	0x38698e60	5.5684126e-05
11	0xbc86bc92	-0.01644734
12	0x3c16e5f8	0.009210102
13	0x3c9a5684	0.018840082
14	0x3ce3106f	0.027717797
15	0xbc774c9b	-0.015093948
16	0x3cd88302	0.026429657
17	0x3e006970	0.12540221
18	0x3d56fccd	0.052487183
19	0x3e074b58	0.13212335
20	0xbd0574cb	-0.032582086
21	0x3bef56e2	0.0073040584
22	0xbe0c9321	-0.13728
23	0xbc5e4e98	-0.013568543
24	0x3d6d6e05	0.05796625
25	0xbd730752	-0.059333153
26	0xbd9e1a0a	-0.0771981
27	0x3ca0bf60	0.019622505
28	0xbda7db6a	-0.08196147
29	0xbc582001	-0.013191224
30	0x3cc6385f	0.024196802
31	0x3bffbdd1	0.0078046103
32	0x3d73df81	0.05953932
33	0x3dfca216	0.12335603
34	0xbd6ec873	-0.058296632
35	0xbd88dfd6	-0.06683318
36	0xbd7fef2e	-0.06248396
37	0xbdaca667	-0.08430176
38	0xbc8396d3	-0.01606313
39	0xbcb9d9fe	-0.022686955
40	0xbd754b05	-0.059885997
41	0xbdb91897	-0.09037893
42	0xbd1e308a	-0.03862051
43	0x3cbbfd1c	0.02294784
44	0xbb58a585	-0.0033057642
45	0xbd275eda	-0.040861942
46	0x3d465969	0.048425112
47	0x3d860e26	0.06545667
48	0xbdfd13b9	-0.123572774
49	0x3c21f29c	0.009884503
50	0xbd462208	-0.0483723
51	0x3d01001a	0.031494237
52	0x3c6307c0	0.013856828
53	0xbdba4714	-0.09095588
54	0x3dbd5882	0.09245397
55	0x3d55140d	0.052021075
56	0xbd9cb91a	-0.07652493
57	0x3dd42ecc	0.10360488
58	0xbd3c345a	-0.045948364
59	0xbdde3175	-0.10849277
60	0xbb18a699	-0.002329266
61	0x3db7a45f	0.08966898
62	0x3dd5c083	0.10437109
63	0x3e054d17	0.13017689
64	0xbdd7a644	-0.105297595
65	0xbdbf75bc	-0.09348628
66	0xbd04ab26	-0.032389782
67	0xbd8a2f88	-0.06747347
68	0xbd2b1c68	-0.041775137
69	0x3ccd2103	0.025040155
70	0x3de64883	0.11244299
71	0x3d56ccab	0.05244128
72	0x3d8424df	0.06452345
73	0xbde22bdb	-0.11043521
74	0xbc915166	-0.01773901
75	0x3dfd85aa	0.1237901
76	0x3da2f0eb	0.07956108
77	0xbd890114	-0.06689659
78	0xbdc50b0f	-0.0962125
79	0xbd8f4949	-0.069964
80	0xbde2cc36	-0.110741064
81	0x3d309e6a	0.043119825
82	0xbd94c4bb	-0.07264086
83	0xbd97ed58	-0.074183166
84	0xbe218a96	-0.15775523
85	0xbc2bc047	-0.010482854
86	0xbdca5170	-0.09878814
87	0x3ddad577	0.106852464
88	0x3dc9a179	0.098452516
89	0x3d61a7cc	0.055091664
90	0x3d8a021a	0.06738682
91	0xbd3428e3	-0.043984305
92	0x3d9cec5d	0.0766227
93	0x3c74a5ca	0.014932105
94	0x3d2f146c	0.042744085
95	0x3d971b05	0.073782004
96	0x3d1eef54	0.03880246
97	0x3d976b5f	0.07393526
98	0x3d91d9b6	0.07121603
99	0xbd83e875	-0.06440822
100	0x3d873e8b	0.06603726
101	0x3d87f350	0.06638205
102	0xbdc39879	-0.09550566
103	0x3d09e097	0.03366145
104	0xbdb7fef4	-0.08984175
105	0xbda1ef2f	-0.07906949
106	0x3c17aee0	0.009258002
107	0x3b0de8ec	0.0021653725
108	0x3d6ad604	0.057333007
109	0x3de3e406	0.111274764
110	0x3e2e93e2	0.170486
111	0xbdb5bbae	-0.08873688
112	0xbd21153e	-0.0393269
113	0x3d02c7bf	0.031928774
114	0xbd163a21	-0.03667653
115	0x3d81c75c	0.06336853
116	0x3d714592	0.058904238
117	0x3dde721b	0.10861608
118	0xbc996eed	-0.018729651
119	0x3c968fd4	0.01837913
120	0x3daf8e94	0.085721165
121	0x3d6d55be	0.0579431
122	0x3dcaf118	0.09909266
123	0xbdc633c0	-0.09677839
124	0xbd7a2cee	-0.061078005
125	0x3cc6049e	0.024172124
126	0xbda2255c	-0.07917282
127	0x3e0d4240	0.13794804
128	0xbda16aa2	-0.07881667
129	0x3c84ade0	0.016196191
130	0xbdba5d64	-0.09099844
131	0xbd71060e	-0.058843665
132	0xbd5cc794	-0.05390127
133	0x3d1c1c3b	0.03811286
134	0xbd14ab1c	-0.036295995
135	0x3c79efd2	0.0152549315
136	0xbd30bac7	-0.043146875
137	0xbce49c1c	-0.02790647
138	0xbb615879	-0.003438501
139	0x3d7a4c2d	0.061107803
140	0x3df2dfd6	0.118590996
141	0x3dedec4b	0.11617335
142	0x3d903643	0.070415996
143	0xbcacbc81	-0.02108598
144	0xbb7b4275	-0.0038339172
145	0xbd030759	-0.03198943
146	0x3ddc7bf4	0.1076583
147	0x3d789bdd	0.060695518
148	0xbd68fe49	-0.05688313
149	0xbdc80323	-0.09766223
150	0x3db9ac49	0.09066064
151	0x3dc7e14e	0.0975977
152	0xbdcd1b5f	-0.10014986
153	0x3b2c83a7	0.0026323588
154	0x3bc2a99c	0.005940629
155	0x3c34f88b	0.011045585
156	0x3d34ea28	0.04416862
157	0xbdc1350b	-0.09433945
158	0xbbfc20d6	-0.007694344
159	0xbe08114e	-0.13287851
160	0x3d9680b6	0.073487684
161	0xbc19f122	-0.009395869
162	0xbcc41ad1	-0.023938568
163	0x3cf7ec92	0.030264173
164	0x3c2f9561	0.010716767
165	0x3cd25a99	0.025677966
166	0x3d8e6742	0.069532886
167	0x3d5a096d	0.053231645
168	0x3d19e125	0.03756823
169	0x3d821c86	0.06353097
170	0x3db9fe8e	0.090817556
171	0x3c87397b	0.016506901
172	0x3d0f63a8	0.03500715
173	0xbd27682d	-0.040870834
174	0x3da8817e	0.08227824
175	0xbd893c72	-0.06700982
176	0xbde6fc5e	-0.11278604
177	0x3cefdf73	0.029281354
178	0x3d8363fb	0.06415554
179	0xbda83c7b	-0.08214661
180	0xbdbad862	-0.09123303
181	0x3be25748	0.0069073774
182	0xbdbb1295	-0.091344036
183	0x3a930196	0.0011215683
184	0xbdbe9866	-0.093064114
185	0xbdbb332d	-0.091406204
186	0xbdb07e95	-0.086178936
187	0xbcb0c56c	-0.021578513
188	0xbd38d40c	-0.0451241
189	0x3dc8d66d	0.098065235
190	0x3d817878	0.06321806
191	0x3dfbc5b2	0.12293567
192	0x3d70dd15	0.05880459
193	0x3d073d39	0.03301737
194	0xbdcc920c	-0.09988794
195	0x3d15609b	0.036469083
196	0xbdca340b	-0.09873208
197	0x3ddb8865	0.107193746
198	0x3cc8a5b3	0.024493074
199	0x3dedda71	0.1161393
200	0xbd2adaee	-0.041712694
201	0xbdbd4eec	-0.09243569
202	0xbc0d3bbc	-0.008620199
203	0x3dc951bf	0.09830045
204	0xbd3f1aa3	-0.046656262
205	0x3d521ee9	0.05129901
206	0xbdc620af	-0.09674203
207	0x3dfa8800	0.12232971
208	0x3e0eacac	0.13933057
209	0x3da8e746	0.08247237
210	0x3c94292a	0.018086035
211	0x3da86b4e	0.08223592
212	0xbe0995b4	-0.13436013
213	0x3d86403b	0.0655522
214	0xbe00b5c5	-0.1256934
215	0xbd29b1db	-0.04142938
216	0x3dd708f3	0.10499754
217	0x3dab155b	0.083536826
218	0x3d7e6585	0.062108535
219	0xbd469627	-0.04848304
220	0x3df5a008	0.11993414
221	0xbe142e64	-0.14470822
222	0x3d11bd55	0.03558095
223	0x3d846b00	0.06465721
224	0x3db699db	0.08916064
225	0xbd97f8f9	-0.07420535
226	0xbd18209a	-0.037140466
227	0xbcf61f53	-0.030044233
228	0xbc5e1438	-0.013554625
229	0xbe060f4c	-0.13091773
230	0x3c9e6871	0.01933691
231	0xbc09faeb	-0.00842164
232	0xbde5ae6a	-0.112149075
233	0x3d34f92b	0.044182938
234	0x396443d4	0.00021769042
235	0x3bc072b3	0.005873048
236	0xbc90ae8c	-0.017661355
237	0xbd992283	-0.07477286
238	0x3e4cf698	0.20015943
239	0xbdb92760	-0.09040713
240	0x3db8a226	0.09015302
241	0x3d3b734d	0.045764256
242	0xbdd4644d	-0.10370693
243	0xbdbf920f	-0.0935403
244	0x3de4e3f9	0.11176295
245	0x3c6bdcad	0.014395875
246	0x3df0c90e	0.11757098
247	0x3dbb9cbd	0.09160755
248	0xbbd6ebba	-0.0065588625
249	0xbc291365	-0.010319565
250	0x3ddf554c	0.10904941
251	0xbe0613e8	-0.13093531
252	0x3d074480	0.03302431
253	0xbd0c89dc	-0.03431116
254	0x3cd11dfd	0.025526995
255	0xbd97fff9	-0.0742187

lstm.bias_hh_l0 f4 [256]
0	0xbdd1d7e0	-0.10246253
1	0xbddeb0da	-0.108735755
2	0xbdb59b8e	-0.0886756
3	0x3db9d25c	0.09073326
4	0xbc40b686	-0.011762267
5	0xbdedb273	-0.11606302
6	0xbde5b296	-0.11215703
7	0xbc8bf9b4	-0.017086841
8	0xbd40064f	-0.046881016
9	0x38549791	5.0685896e-05
10	0xbd711bf1	-0.058864538
11	0xbd159f17	-0.036528673
12	0xbcbafe3d	-0.022826308
13	0xbdaa033f	-0.083014004
14	0xbde86f77	-0.11349385
15	0xbdd881b8	-0.10571617
16	0x3de120f8	0.109926164
17	0x3db3423b	0.08752867
18	0x3dae4c76	0.085106775
19	0x3d38e3c5	0.045139093
20	0xbd0544d3	-0.03253634
21	0xbd3c2fec	-0.04594414
22	0xbd968ad5	-0.07350699
23	0x3cc87def	0.024474112
24	0x3cab52f5	0.02091358
25	0xbc456cae	-0.012049837
26	0x3d9b4903	0.07582285
27	0x3cc8b0ae	0.02449831
28	0x3e138728	0.14407027
29	0x3d633479	0.055469964
30	0x3d952c73	0.07283869
31	0xbe0e51df	-0.13898419
32	0xbde047a0	-0.109511614
33	0x3dda1fcf	0.10650598
34	0x3dc100a9	0.09423954
35	0xbd7567e0	-0.059913516
36	0x3b4e5be3	0.0031487874
37	0x3df59c4a	0.119927004
38	0xbdbaec93	-0.09127154
39	0x3dfb9fa5	0.12286309
40	0xbcf2ad7f	-0.029623745
41	0x3dfdf997	0.12401121
42	0x3d4d23a5	0.05008282
43	0x3df9aab6	0.12190764
44	0x3d53a39e	0.05166971
45	0xbd582e0e	-0.052778296
46	0x3da6d395	0.08145825
47	0xbbccec8d	-0.006253785
48	0x3b46b07d	0.0030317598
49	0x3cd22471	0.025652142
50	0xbdd495fc	-0.1038017
51	0xbe2114b1	-0.1573055
52	0x3d23ebd3	0.04001982
53	0xbe03c87a	-0.12869444
54	0x3d84afca	0.064788416
55	0xbb233655	-0.002490421
56	0x3b8387aa	0.004013975
57	0xbd8cca7b	-0.068745576
58	0xbd1cfc1e	-0.038326375
59	0x3d71f4f3	0.059071492
60	0x3c12fb10	0.008970991
61	0xbcd9233d	-0.02650606
62	0xbdf19c5d	-0.11797402
63	0x3e11994b	0.14218633
64	0x3d5598d7	0.052147713
65	0x3dd0336e	0.101660594
66	0xbcce2554	-0.025164284
67	0x3d71713a	0.058945872
68	0x3dd092d8	0.10184258
69	0x3d9c049b	0.07618066
70	0xbc848f67	-0.01618166
71	0xbdb5bcda	-0.08873911
72	0xbce0a2a8	-0.02742131
73	0xbd0bd543	-0.03413893
74	0x3dd4a06a	0.10382159
75	0xbdb3b6e8	-0.08775121
76	0x3e186ac5	0.1488448
77	0x3b1ae16c	0.0023632897
78	0x3b1b9637	0.0023740658
79	0x3d82dcec	0.06389794
80	0x3c8163db	0.015794685
81	0x3c222eab	0.009898822
82	0x3d843fb7	0.06457465
83	0xbdee122e	-0.11624561
84	0xbe007ca4	-0.12547547
85	0xbdb34e95	-0.08755223
86	0x3cffcb11	0.03122476
87	0x3daee5b3	0.085399054
88	0x3da0f155	0.078585304
89	0x3c557751	0.0130289355
90	0x3c8b8fb0	0.017036289
91	0xbdf9c35f	-0.12195467
92	0x3d74d05c	0.05976902
93	0xbdca44ba	-0.0987639
94	0x3dfa38b5	0.12217847
95	0x3e151336	0.1455811
96	0xbd00b368	-0.031421095
97	0xbcebda33	-0.028790569
98	0xbc6d6890	-0.014490262
99	0xbdb4524f	-0.088047616
100	0x3d5df3b9	0.05418751
101	0xbaa5266b	-0.001259995
102	0x3d10f9e7	0.035394575
103	0xbc842f58	-0.016135857
104	0x3d72985f	0.059227344
105	0x3dd31677	0.10307019
106	0x3dd6a417	0.104805164
107	0xbdecd7ad	-0.115645744
108	0xbdbdaee0	-0.092618704
109	0xbd6ee7a8	-0.058326393
110	0xbd2ca902	-0.042153366
111	0xbc888aba	-0.016667712
112	0xbe04e9d4	-0.12979823
113	0xbd07b044	-0.033127084
114	0xbd8f3679	-0.06992812
115	0xbdf59c86	-0.11992745
116	0x3dc4fc6d	0.09618459
117	0x3d9b43ea	0.07581313
118	0x3d9d11ef	0.07669436
119	0x3db7f658	0.08982533
120	0xbdf6668b	-0.12031277
121	0x3cffb09e	0.031212147
122	0xbc04dd39	-0.008109384
123	0xbd95aaec	-0.073079914
124	0xbd3a2581	-0.045445923
125	0xbd4fc646	-0.050726198
126	0x3d6ceb70	0.05784172
127	0x3ba2470e	0.004952318
128	0x3cdc9232	0.02692518
129	0xbd2e8042	-0.042602785
130	0xbdfe58de	-0.12419294
131	0xbe0d79df	-0.13816021
132	0xbca03fcf	-0.019561676
133	0x3d9c77ab	0.07640012
134	0x3b0bd4f8	0.0021336656
135	0x3d64f721	0.055899743
136	0xbdf977d4	-0.121810585
137	0xbd4b3268	-0.049608618
138	0xbdc6d017	-0.09707659
139	0xbd4210b9	-0.04737923
140	0xbd590048	-0.052978784
141	0x3d21ddba	0.039518096
142	0x3d75fb19	0.06005392
143	0x3df2d161	0.11856342
144	0xbcb5f407	-0.022211088
145	0x3cb858fa	0.022503365
146	0x3cbfd3f7	0.023416502
147	0x3d94d2b0	0.07266748
148	0x3d64cde8	0.05586043
149	0xbd3b6079	-0.0457463
150	0xbd5d76f8	-0.054068536
151	0xbc931ce9	-0.017958121
152	0x3da753eb	0.08170303
153	0x3d346b9c	0.044047937
154	0xbdc5e5e6	-0.0966299
155	0x3d7971b9	0.06089947
156	0xbce5fbb5	-0.028074125
157	0x3d8c8b06	0.06862454
158	0xbe0e16aa	-0.13875833
159	0x3d9f1f9a	0.077696994
160	0x3d0184d5	0.03162082
161	0x3def186b	0.11674579
162	0x3d5773c7	0.05260065
163	0x3d3e1f9b	0.04641686
164	0x3cf590fe	0.029976364
165	0xbdbc37de	-0.09190343
166	0xbd6d6ca9	-0.057964955
167	0xbdb98c4c	-0.09059963
168	0xb80db993	-3.378985e-05
169	0x3db88381	0.090094574
170	0x3c347ebd	0.011016545
171	0x3c06b519	0.008221888
172	0xbdba55e8	-0.090984166
173	0xbd1e2191	-0.03860623
174	0xbd87875a	-0.06617613
175	0xbd75195d	-0.05983864
176	0xbd289721	-0.041159753
177	0x3d9533c4	0.07285264
178	0x3d8200c9	0.06347806
179	0x3dc88527	0.09791022
180	0xbd25ee71	-0.0405106
181	0xbd8b1b58	-0.06792325
182	0xbdade839	-0.084915586
183	0x3c5b42e2	0.013382645
184	0x3dd6c91c	0.10487577
185	0x3cab48a7	0.020908667
186	0xbd8b570e	-0.06803714
187	0x3cb8b191	0.022545608
188	0xbd3e3cc1	-0.04644466
189	0xbcae1db1	-0.021254392
190	0xbc430a0a	-0.011904249
191	0x3e1909a4	0.14945084
192	0x3d1a26ae	0.037634544
193	0xbd58c291	-0.052919928
194	0xbc4dc3a4	-0.012558851
195	0x3de0dcf2	0.10979642
196	0xbcbb14ad	-0.022837007
197	0xbc9104ce	-0.017702486
198	0xbd63fdd6	-0.055662
199	0x3d74d591	0.059773985
200	0xbcc368f9	-0.023853766
201	0xbd332887	-0.04373982
202	0x3d9f8ea2	0.07790877
203	0xbde3ca43	-0.11122563
204	0xbd5a8e7c	-0.05335854
205	0xbd19eda0	-0.037580132
206	0xbd48c02d	-0.049011398
207	0xbdeb3d1a	-0.114862636
208	0xbd3a3642	-0.0454619
209	0x3db25f4d	0.087095834
210	0xbc98368d	-0.0185807
211	0x3d7f43b9	0.062320445
212	0x3d9f362f	0.077740066
213	0x3bbb9eda	0.0057257237
214	0x3cd2e146	0.025742184
215	0xbcc84c6d	-0.024450505
216	0x3bdbce3e	0.0067079356
217	0x3da2d58f	0.07950889
218	0x3dd9fa8d	0.10643492
219	0x3d54c0a8	0.051941544
220	0x3da354bc	0.07975146
221	0xbe108a2e	-0.14115211
222	0x3d953bd1	0.072868
223	0xbcdc38e4	-0.026882596
224	0xbac4d17c	-0.0015016044
225	0x3cb6096c	0.02222129
226	0x3d2ff2c3	0.042956125
227	0xbd1b7821	-0.03795636
228	0x3db7ac15	0.08968369
229	0x3d1f3cd7	0.03887638
230	0xbd76f0af	-0.060288128
231	0x3e06a51b	0.1314892
232	0xbe0db640	-0.13839054
233	0xbdccc5b0	-0.099986434
234	0xbdfb54ee	-0.122720584
235	0xbcd3131d	-0.02576595
236	0xbd8172ef	-0.0632075
237	0xbd87e547	-0.06635528
238	0x3e24ba17	0.16086613
239	0xbdc368a0	-0.0954144
240	0xbc5aa954	-0.013346035
241	0x3e0c6a44	0.13712412
242	0xbd820fef	-0.06350695
243	0xbe0debfe	-0.13859555
244	0x3dc7f1a7	0.097628884
245	0xbddafd01	-0.10692788
246	0x3d26cd44	0.0407231
247	0x3dab8add	0.083760954
248	0x3d849dfc	0.06475446
249	0xbd516361	-0.051120166
250	0x3d888e46	0.066677615
251	0xbd1a8902	-0.037728317
252	0x3d8fd303	0.07022669
253	0x3d03b95a	0.032159187
254	0x3d8e26ef	0.0694102
255	0x3da6199a	0.08110352
